…
    "    # initialize model weights\n",
    "    D.apply(weights_init_normal)\n",
    "    G.apply(weights_init_normal)\n",
    "\n",
    "    print(D)\n",
    "    print()\n",
    "    print(G)\n",
    "    \n",
    "    return D, G\n"
   ]
  },
  {
   "cell_type": "markdown",
   "metadata": {},
   "source": [
    "#### Exercise: Define model hyperparameters"
   ]
  },
  {
   "cell_type": "code",
   "execution_count": 38,
   "metadata": {},
   "outputs": [
    {
     "name": "stdout",
     "output_type": "stream",
     "text": [
      "Discriminator(\n",
      "  (conv1): Sequential(\n",
      "    (0): Conv2d(3, 32, kernel_size=(4, 4), stride=(2, 2), padding=(1, 1), bias=False)\n",
      "  )\n",
      "  (conv2): Sequential(\n",
      "    (0): Conv2d(32, 64, kernel_size=(4, 4), stride=(2, 2), padding=(1, 1), bias=False)\n",
      "    (1): BatchNorm2d(64, eps=1e-05, momentum=0.1, affine=True, track_running_stats=True)\n",
      "  )\n",
      "  (conv3): Sequential(\n",
      "    (0): Conv2d(64, 128, kernel_size=(4, 4), stride=(2, 2), padding=(1, 1), bias=False)\n",
      "    (1): BatchNorm2d(128, eps=1e-05, momentum=0.1, affine=True, track_running_stats=True)\n",
      "  )\n",
      "  (fc): Linear(in_features=2048, out_features=1, bias=True)\n",
      ")\n",
      "\n",
      "Generator(\n",
      "  (fc): Linear(in_features=5000, out_features=18816, bias=True)\n",
      "  (t_conv1): Sequential(\n",
      "    (0): ConvTranspose2d(4704, 1568, kernel_size=(4, 4), stride=(2, 2), padding=(1, 1), bias=False)\n",
      "    (1): BatchNorm2d(1568, eps=1e-05, momentum=0.1, affine=True, track_running_stats=True)\n",
      "  )\n",
      "  (t_conv2): Sequential(\n",
      "    (0): ConvTranspose2d(1568, 224, kernel_size=(4, 4), stride=(2, 2), padding=(1, 1), bias=False)\n",
      "    (1): BatchNorm2d(224, eps=1e-05, momentum=0.1, affine=True, track_running_stats=True)\n",
      "  )\n",
      "  (t_conv3): Sequential(\n",
      "    (0): ConvTranspose2d(224, 32, kernel_size=(4, 4), stride=(2, 2), padding=(1, 1), bias=False)\n",
      "    (1): BatchNorm2d(32, eps=1e-05, momentum=0.1, affine=True, track_running_stats=True)\n",
      "  )\n",
      "  (t_conv4): Sequential(\n",
      "    (0): ConvTranspose2d(32, 3, kernel_size=(4, 4), stride=(2, 2), padding=(1, 1), bias=False)\n",
      "  )\n",
      ")\n"
     ]
    }
   ],
   "source": [
    "# Define model hyperparams\n",
    "d_conv_dim =32 \n",
    "g_conv_dim = 32\n",
    "z_size = 5000\n",
    "\n",
    "\"\"\"\n",
    "DON'T MODIFY ANYTHING IN THIS CELL THAT IS BELOW THIS LINE\n",
    "\"\"\"\n",
    "D, G = build_network(d_conv_dim, g_conv_dim, z_size)"
…
